Reader/model/model.tflite (tflite, 70200 bytes, 8 tensors)

sequential/dense_1/BiasAdd/ReadVariableOp f4 [64]
000000 d5 de 09 bf 50 ce bc be 69 7d 01 bf de 76 54 be
       -0.5385564 -0.36876154 -0.50581986 -0.20748469
000010 cf 68 63 bf b4 fb 10 be 5c aa 39 bf 14 8b 59 be
       -0.888318 -0.14158517 -0.7252557 -0.2124446
000020 75 5a b5 be 60 2a 17 bf c3 f0 fd be a9 8c 2f bf
       -0.35420576 -0.59049034 -0.4959775 -0.68574005
000030 f4 8c 2b bf a9 65 1e 3d a4 c8 82 be f3 f5 29 be
       -0.6701195 0.03867117 -0.25543702 -0.16597728
000040 60 73 18 bf f2 30 05 bf 15 03 65 be bb d7 fc be
       -0.5955105 -0.5202781 -0.22364457 -0.4938334
000050 c8 68 f3 be b6 54 11 bf eb 01 35 bf 72 b2 1c bf
       -0.4754088 -0.56769884 -0.7070605 -0.61209786
000060 43 69 18 bf 19 8d 09 bf 9a b9 9b be c1 5c 42 bf
       -0.59535617 -0.5373092 -0.3041504 -0.7592278
000070 94 e4 10 be c8 2a 1b bf 9a f1 02 bf ca 13 e6 be
       -0.14149696 -0.60612154 -0.51149905 -0.44936973
000080 92 23 f7 be 20 e3 a4 be 74 2f 1a bf 76 d7 0e bf
       -0.48269325 -0.32204533 -0.6022866 -0.5579752
000090 e8 03 01 be b2 f9 ea be 3c 10 26 3e cd 5c 8b be
       -0.12599146 -0.45893627 0.1621713 -0.2721924
0000a0 28 04 3f bd 54 c5 96 bd 4d 5c 10 bf ed 12 b2 be
       -0.046634823 -0.07361856 -0.5639084 -0.34780064
0000b0 71 84 cc be db 99 09 bf 20 32 34 bf e4 52 17 bf
       -0.39944795 -0.5375039 -0.70388985 -0.59110856
0000c0 a7 3a 4e bf 27 54 c4 be b0 b5 39 be e2 bc e0 be
       -0.80558246 -0.38345453 -0.18135715 -0.43894106
0000d0 6d 13 2f bf 3c f4 45 bf 5c 7c 93 be 35 c0 1b bf
       -0.68389016 -0.773258 -0.28805816 -0.6084016
0000e0 0e 2a d4 be 1c 26 bb be ba ee 2e bf 39 0c e4 be
       -0.41438335 -0.36552513 -0.6833302 -0.44540575
0000f0 0d 63 f4 be 14 92 a1 be 6b 42 27 bf 95 0f f3 be
       -0.4773182 -0.3155676 -0.6533572 -0.47472826

sequential/dense_2/BiasAdd/ReadVariableOp f4 [32]
000000 8d 5b 55 be 2e d7 c3 be 4b c4 a9 bf f6 4b 87 bf
       -0.20835705 -0.38250107 -1.3263029 -1.0570056
000010 b4 20 19 bf 05 41 9c bf 35 fa 40 3f 10 19 52 3e
       -0.59815526 -1.2207342 0.75381786 0.20517373
000020 23 72 d7 bd 08 16 ad 3f 03 21 c0 3e c5 b8 39 be
       -0.10519817 1.3522348 0.37525186 -0.1813689
000030 59 82 68 3d 46 2b 56 bf 40 aa da 3d 15 e2 f9 be
       0.056764934 -0.8365978 0.10677004 -0.488053
000040 08 11 00 3d 46 88 8f bc 36 b8 10 3f 92 6e 97 bf
       0.031266242 -0.017521035 0.56531084 -1.1830618
000050 fe fd c5 3e e8 93 4b bf 45 4f 1e be 7f b4 7d 3f
       0.38670343 -0.7952256 -0.15459926 0.9910354
000060 65 28 17 3f ad 5e 9a 3e 07 a8 88 3f 16 93 67 3e
       0.5904601 0.30150357 1.0676278 0.22614703
000070 b8 57 91 bf 42 0f b0 be f5 02 44 bf d3 59 d1 3e
       -1.1354895 -0.3438664 -0.7656701 0.40888843

sequential/dense_3/BiasAdd/ReadVariableOp f4 [30]
000000 65 64 32 be 73 2b bd bd 87 e8 6a bf bc 2e 3a 3e
       -0.1742111 -0.09236803 -0.9176106 0.1818189
000010 9b 85 82 3e 3d fc e9 be 8c 03 04 3f 4a 8a 80 3f
       0.25492558 -0.45700255 0.5156791 1.0042202
000020 b0 85 2e 3f b6 d3 17 c0 55 7c e3 be a8 2c 54 3d
       0.6817274 -2.3722968 -0.44430795 0.0518004
000030 b2 9a 4a be b1 d7 04 bf 67 3c 66 be 6c 17 0f bf
       -0.19785574 -0.5189162 -0.22483979 -0.55895114
000040 6c 59 bc 3e e6 c7 aa be f2 c6 2e 3f 39 5d 02 3e
       0.36786973 -0.33355635 0.68272316 0.12730874
000050 b5 49 26 3f 60 5b 11 bf 8e 96 25 3e 00 cb 20 3e
       0.6495622 -0.5678005 0.16170713 0.15702438
000060 8a a1 6d bf 56 24 1d c0 dc 38 18 c0 25 f3 f1 bb
       -0.92824614 -2.4553428 -2.3784704 -0.0073837214
000070 56 6c 8b bf 1b 60 a0 3e
       -1.0892437 0.31323323

sequential/dense/BiasAdd/ReadVariableOp f4 [128]
000000 7c ec cf be 3f 92 c8 be 06 6b 48 3e f0 6b 22 3e
       -0.4061011 -0.39174077 0.19572076 0.15861487
000010 9b 5f 70 be 81 d0 7e be fb f1 92 be fe b8 b2 bd
       -0.2347397 -0.24884225 -0.2870024 -0.08726691
000020 1f 69 04 bf d0 63 b2 be 68 20 5e be 33 ef 76 be
       -0.517229 -0.34841776 -0.2169205 -0.24114685
000030 76 a4 9e be c4 9f e9 be 3b 0d f9 bd 82 ca 97 bd
       -0.3098485 -0.45629704 -0.12160727 -0.07411672
000040 f1 20 ce be 74 a8 cf be ae 23 04 bf c5 34 34 3d
       -0.40259507 -0.40558207 -0.5161694 0.043995637
000050 6b dd 68 3d 13 67 7a 3b 1d e0 72 3e 60 39 cf bd
       0.056851786 0.003820841 0.23718305 -0.10118365
000060 13 c6 e9 be aa 96 80 be ae 6a de be ab 71 8e 3e
       -0.4565893 -0.25114948 -0.43440765 0.27821097
000070 bf 20 8a bd a8 35 41 bb 8b f7 2e bd e9 14 9b be
       -0.06744527 -0.0029481445 -0.042716544 -0.3028939
000080 3d fc ce bd fc 25 84 be 2a 56 e7 be 79 e7 ff be
       -0.101067044 -0.2581023 -0.45182925 -0.49981287
000090 53 08 dd bd aa a6 f9 bd 3a fb 29 bf 96 34 b2 bd
       -0.10792603 -0.12189992 -0.66398966 -0.08701436
0000a0 7a 3e 08 bf a0 b3 53 bc ce f9 2b 3b 07 ff 3c be
       -0.5322033 -0.012921244 0.0026241424 -0.1845666
0000b0 72 a5 c5 be ef ca 8f be ba 15 0a bd 66 d1 1b be
       -0.38602787 -0.28084514 -0.033712126 -0.15216598
0000c0 2e 0f 83 3d f8 a2 1a bf 0b 4b 06 be 52 e5 0e 3e
       0.0639938 -0.6040492 -0.13114564 0.13954666
0000d0 9d f4 58 be 17 c1 85 bb 66 db 9e 3d ac 19 03 bf
       -0.21187063 -0.004081856 0.07756691 -0.5121105
0000e0 13 cc af bd 52 2d 18 be 81 ab 86 3d d1 ec ac bd
       -0.08583846 -0.14861038 0.065756805 -0.08443607
0000f0 99 7f 43 be e3 6c 3c be 4f 20 c2 be c2 4f e6 be
       -0.19091643 -0.18400912 -0.37915275 -0.44982725
000100 79 92 af 3c 5a 24 d2 bc ab ff 91 bd dc 8e 86 3d
       0.021432148 -0.0256521 -0.07128843 0.06570217
000110 39 81 03 be 1d 5a 20 3d de 83 6d be ee b1 8b be
       -0.12842263 0.03914844 -0.23194835 -0.27284187
000120 36 0e 6d 3d 77 7c 01 be 28 3b 40 3d 65 cb ae bd
       0.05787488 -0.12645136 0.046931416 -0.08534888
000130 d7 41 3b 3d 40 f0 90 be 34 54 be be 2d 17 a6 bd
       0.045717087 -0.28308296 -0.37173617 -0.08109889
000140 09 47 9f bd 8f 76 5e be 90 58 ee bd 27 38 17 bf
       -0.07777221 -0.21724914 -0.11637986 -0.59070057
000150 13 4b b5 3d 1c 80 94 be d6 d5 12 be d5 96 15 3d
       0.0885221 -0.2900399 -0.14339384 0.036520798
000160 35 f2 bd be d0 f2 53 bd f6 ed d5 bd e1 ce 4c be
       -0.37098852 -0.051745236 -0.10445778 -0.20000793
000170 a6 74 e4 be 49 f2 11 bf 5f f2 70 be 62 2c 15 be
       -0.44620246 -0.5701032 -0.23529957 -0.14567712
000180 f6 ef 2b bf 63 7f d0 be 2e d2 81 3e 37 7c 24 be
       -0.67163026 -0.40722188 0.25355667 -0.16063009
000190 a1 db fc bd f4 ed 97 bb eb 53 af be 0c f0 a5 bd
       -0.123465784 -0.0046365205 -0.34243712 -0.08102426
0001a0 e7 27 52 3d 4b 65 ea bd c9 b8 15 bf e3 79 11 be
       0.051307585 -0.11445101 -0.58485085 -0.14206652
0001b0 38 4d 82 be 8f 6c 20 bf 88 b1 40 3e 86 b2 f3 be
       -0.25449538 -0.6266565 0.18817723 -0.4759714
0001c0 1b a6 9b be 26 1b f6 be 25 98 b4 3d 8b 67 82 be
       -0.30400166 -0.48067588 0.08818082 -0.25469622
0001d0 9e df 8f bb b8 35 cf bd 3a 92 ae bd cc 5c f3 be
       -0.004390671 -0.10117668 -0.08523984 -0.47531736
0001e0 2f 2c de be 45 47 88 be ce 0a 2a 3e c8 c7 c0 bd
       -0.43393084 -0.26616874 0.16605684 -0.09413105
0001f0 b7 d1 81 bb 6a 1c 13 be 5e c2 00 bf 29 a3 75 be
       -0.0039617675 -0.14366308 -0.5029658 -0.23988022

sequential/dense/MatMul f4 [128, 42]
000000 84 c3 e5 3d 24 5f 85 bd ea 2b c9 bd 0c af 72 3f
       0.11218932 -0.06512287 -0.09822829 0.9479835
000010 d3 66 e3 3c f9 74 0a 3e b0 04 40 3e 53 cc 2a be
       0.027758991 0.13521184 0.18751788 -0.16679506
000020 ff df 88 3f 41 5b 95 bf ec c1 56 3e fe 39 65 3e
       1.0693358 -1.1668473 0.20972413 0.22385404
000030 da d8 66 3e 02 5b 6a 3e 45 a0 1f be c0 6c 02 be
       0.2254366 0.22886279 -0.15588482 -0.12736797
000040 ac 7b 96 be f7 c1 5a bf 56 60 06 3e d0 13 b7 3e
       -0.2939123 -0.85452217 0.13122687 0.35757303
000050 85 b8 ff bd bd 49 43 3e 92 db c3 3d 85 f7 88 3e
       -0.12486366 0.19071098 0.09563364 0.26751342
000060 3d 50 a9 bd c4 55 e4 bc c4 be f3 bd d9 ce af 3d
       -0.08267257 -0.027872927 -0.1190162 0.08584375
000070 95 cf 59 be 49 04 dd 3d 5e 83 c5 be 65 43 d8 3d
       -0.21270593 0.10791833 -0.38576788 0.105597295
000080 cf e2 d4 bd bc 07 51 3f c3 41 95 3e b6 61 b4 3d
       -0.10394823 0.81652427 0.29151735 0.088076994
000090 b0 9c a0 3d 4d 6d d1 be 5c 6b 2e bd 6a 82 8b 3d
       0.07842386 -0.40903702 -0.042582855 0.06811984
0000a0 b7 25 01 bf 65 99 72 3e ba 6e 00 3e ff 59 d2 bd
       -0.50448173 0.23691328 0.12542239 -0.10271072
0000b0 78 7f 2f be 3e 2c 7e 3e d4 b7 4b 3d c0 41 ee bd
       -0.17138469 0.24821565 0.04973586 -0.116336346
0000c0 38 2b e1 bd ac 40 86 be 55 be aa 3d 7c 0f 1c bf
       -0.109945714 -0.26221216 0.08337084 -0.6096113
0000d0 94 02 1b 3e de 20 6c be 0b 2a 46 3e 40 49 04 bf
       0.15137702 -0.23059413 0.19351976 -0.5167427
0000e0 ea 75 2e 3d 7f 98 e4 be 84 e6 d9 bd 03 ab b6 3e
       0.04259292 -0.44647595 -0.106396705 0.35677347
0000f0 65 4e 42 3e c8 a1 28 be 30 16 07 be 16 cd 0e 3e
       0.18975218 -0.16467965 -0.13192058 0.13945422
000100 45 0f 02 be 27 bd 23 3f 0f 9a c4 3e fc e6 8b 3f
       -0.12701137 0.639605 0.38398787 1.0929866
000110 e9 54 9f bc 4c 70 6a be 81 da 3e 3e 0b 99 c4 3e
       -0.019449668 -0.228944 0.1863804 0.38398013
000120 c5 ef ec be ab c7 a1 bd 1d 92 88 bf f9 33 3f bf
       -0.4627668 -0.07899412 -1.066959 -0.7468868
000130 e1 bf a0 3d 8f 6e 42 bd cb 9a b2 3e 3e 6a e5 3e
       0.07849098 -0.04746872 0.34883723 0.4480762
000140 67 d4 0a 3e 1b e0 3b 3e 6d b6 f9 bd b5 a2 6e bd
       0.13557588 0.18347208 -0.12192998 -0.05826064
000150 3c 2c c1 3d f0 af 49 bd 78 9a fd 3e 8f c3 f1 3e
       0.09432265 -0.049240053 0.49531913 0.47219512
000160 ed 2b ae 3e e6 b4 e7 3e de 13 53 3c 8c be 09 3e
       0.34017888 0.45255202 0.012883155 0.13451594
000170 40 2e 8f 3f f1 17 24 bf 6d b0 8c 3d 9b 04 d6 3e
       1.1185989 -0.6409903 0.06869588 0.4180039
000180 ac d8 8d bd cd 1a f6 3d e1 86 ff bd 08 b0 22 bc
       -0.069260925 0.120168306 -0.12476898 -0.009929664
000190 1a 83 a1 be 0a f0 05 bf 19 55 61 be 06 45 16 3e
       -0.31545335 -0.52319396 -0.22005118 0.14674768
0001a0 1a e6 9b be cd 2f cb 3e be 0e 94 bd 5b 2b 27 3e
       -0.3044899 0.39684907 -0.07229374 0.16325133
0001b0 00 39 f9 3e 6d 43 00 3f 60 1a e2 be 41 69 8b 3d
       0.486763 0.50102884 -0.44160748 0.06807185
0001c0 c0 08 21 bf 7f 8b a1 3d 92 41 5e 3e 5f 2b a1 be
       -0.62903976 0.07887935 0.217047 -0.31478402
0001d0 f1 0f 4a 3f a9 b7 c5 be 09 18 1c be 0b 02 0f be
       0.78930575 -0.38616684 -0.15243544 -0.13965623
0001e0 48 35 07 be 50 b3 c2 be d3 98 39 bd aa b9 6b 3d
       -0.13203919 -0.3802743 -0.04531176 0.05755011
0001f0 f0 d9 05 3f a4 1b ec 3e a4 c3 59 3d af 4d f3 bd
       0.5228567 0.46114838 0.053165093 -0.11880051
000200 4a 89 91 bd cb 94 eb be a2 4e 31 3e ca 20 46 be
       -0.07106264 -0.46011958 0.17315152 -0.19348446
000210 7b 91 00 3f ef bc a2 3e e0 11 9f 3e fe 1b a9 be
       0.50221986 0.3178477 0.31068325 -0.3302917
000220 51 03 c4 be 0f 67 40 3e f8 4a 62 be df 77 e9 3e
       -0.3828378 0.18789314 -0.22098911 0.45599267
000230 74 5a 91 be 0e f2 05 3f ab aa 12 bf b5 27 96 3f
       -0.28389323 0.5232247 -0.5729167 1.1730868
000240 91 ee 0f 3e e4 56 61 bd f6 ca a1 3e 3f 65 ef be
       0.1405585 -0.055014506 0.3160016 -0.46756932
000250 6b 93 66 3e 36 bd 2e bf 81 bd 37 3e e5 ae 31 bf
       0.22517173 -0.6825746 0.17943384 -0.6940749
000260 7a 17 82 3e a1 7b d9 3d 2a e3 0a 3e 0e 9c 5d bc
       0.25408536 0.106192835 0.13563219 -0.013525976
000270 44 84 2f 3e 76 7f 64 3d 3a 11 62 be cc 23 63 3f
       0.17140299 0.05578562 -0.22076884 0.88726497
000280 87 d1 9e bb 14 11 bf bd f8 a6 9a be d0 0f 6c 3e
       -0.004846755 -0.09329429 -0.30205512 0.23052907
000290 94 a7 0b bd 28 4b 9b be 70 fb fb bd 78 50 d4 be
       -0.03409536 -0.30330777 -0.12303817 -0.41467643
0002a0 ce 7b 31 3e 98 c9 b6 bc 0a b5 79 be cf 17 75 bd
       0.17332384 -0.022312924 -0.24385467 -0.05983716
0002b0 8f ec 4b be 21 ca cc 3d 31 35 9a bd b9 70 72 bd
       -0.19914459 0.099994905 -0.07529677 -0.059189532
0002c0 f1 75 62 bf 6c 69 93 bc 02 7d 03 bd a3 6a 91 3d
       -0.88461214 -0.017994605 -0.03210164 0.071004175
0002d0 4d 63 df be 79 73 d8 bd 02 1f 8c bf f8 a4 27 be
       -0.43630448 -0.105689 -1.0946963 -0.16371524
0002e0 62 d5 97 bf f4 d3 da bd fe 86 ce 3e ff 41 d8 3d
       -1.1861994 -0.10684958 0.40337366 0.10559463
0002f0 ae 29 7c 3f 42 e3 8c bc 56 3e 2a 3f b3 7c 72 3e
       0.985011 -0.017198209 0.6650137 0.23680381
000300 08 b8 3c 3f 47 00 6a be d6 73 4b bd 59 4c cc bd
       0.7371831 -0.22851668 -0.049671017 -0.099755
000310 55 78 05 3f aa 7e ab 3e 69 be cb 3e 56 0a 7f 3e
       0.5213674 0.33495075 0.3979371 0.24906287
000320 e8 e4 f4 3e 03 2f d9 be d6 1a 3a be cd 1a 0f 3e
       0.47830892 -0.4241868 -0.181743 0.13975067
000330 bc 62 a3 3c 67 00 13 be af 5d 85 bc 85 43 e7 bd
       0.019944541 -0.14355622 -0.016280023 -0.11292175
000340 68 81 63 bd 40 46 09 3f c0 0d b8 bd 48 4f 06 3d
       -0.055543333 0.5362282 -0.089869976 0.032790452
000350 6d c3 50 bd 84 ec e1 bd 0a 8d 57 3b f2 aa 9a bd
       -0.050967623 -0.1103144 0.0032890462 -0.075521365
000360 d0 bb 00 be a8 dc 04 3d 3a 9a 88 bf d6 b8 1d bf
       -0.12571645 0.032436997 -1.0672066 -0.6161016
000370 8d a2 1b bf d7 67 36 3e 14 50 9b 3d dc a6 81 3e
       -0.6079491 0.1781305 0.07583633 0.25322616
000380 3d 4e d9 3e 67 dd fe 3e f8 64 86 3e ca f1 4d 3f
       0.42442504 0.49778292 0.26248908 0.80447066
000390 ec 90 1f bf a0 3f 80 3c 05 1d aa 3d 4e a1 2a be
       -0.6233051 0.015655339 0.08306316 -0.16663095
0003a0 43 35 6f 3e e5 44 9d be ef 6c 04 3f bb 5d 00 3e
       0.23360161 -0.30716625 0.5172872 0.12535755
0003b0 d4 fe 36 bf 4d 13 2b be 18 6f 24 be 4b ce 6a 3d
       -0.71482587 -0.16706581 -0.16058004 0.057325643
0003c0 77 f6 10 3d b3 57 48 be a4 5a 99 3e 27 c9 06 3e
       0.035391297 -0.19564705 0.29951966 0.13162671
0003d0 46 67 19 bf a3 0a 9a bd cb 78 8c 3c 37 99 b0 bd
       -0.5992321 -0.0752156 0.017147442 -0.086229734
0003e0 ce 85 3f 3e 16 b5 07 be 5d 33 57 3f c7 e5 00 bf
       0.18703386 -0.13252673 0.8406275 -0.5035061
0003f0 04 9e 73 3d 20 75 16 3e c7 9c 5d be b5 67 0b 3e
       0.059476867 0.14693117 -0.21641837 0.1361378

sequential/dense_1/MatMul f4 [64, 128]
000000 64 ec 51 3e 59 60 8f 3d f2 df 96 be bb bf 2b bf
       0.20500332 0.07000799 -0.29467732 -0.6708943
000010 d7 ab 30 be f7 87 40 be 8e 93 2f bf 3c 6f db be
       -0.17253052 -0.18801866 -0.68584526 -0.42858303
000020 2c 14 1d 3e f9 0e 96 bd 31 c4 c9 bd ba a8 8a 3d
       0.15339726 -0.073270746 -0.09851874 0.06770463
000030 55 01 71 3d e0 9c d1 3e 19 10 9a be e6 47 55 bd
       0.05883916 0.4094 -0.30090407 -0.05207052
000040 c3 f5 17 bc 2e 1c 03 bd 01 6f df bd 02 7f 1e be
       -0.009274903 -0.032009296 -0.10909844 -0.15478137
000050 56 59 6b bd 22 55 0c be b6 de e7 be f9 f9 11 be
       -0.057458244 -0.1370435 -0.45287102 -0.14255513
000060 b8 1a 15 be 6b 2c 0a be ef e6 2a bc 41 35 05 bf
       -0.14560974 -0.13493507 -0.010431035 -0.52034384
000070 68 7d 99 bd f0 5c 92 be e2 3e 81 be 51 51 64 bd
       -0.074946225 -0.2858653 -0.25243288 -0.055741612
000080 2b ec 3b bd 88 9f e0 3d 7c 30 3e bb 1b 52 9d 3d
       -0.045879524 0.10967928 -0.0029020598 0.07681676
000090 b3 37 bc bb b4 5d 68 3c ae 02 3c 3e dc 50 75 bc
       -0.0057439446 0.014182497 0.18360397 -0.014972892
0000a0 87 3e 01 bf 65 c3 82 be 1d 44 f0 be b4 92 0f be
       -0.50486034 -0.255397 -0.46926966 -0.14020807
0000b0 2f 0f 84 bb aa 7d 95 bd b6 0c 92 be 35 60 c9 bd
       -0.0040301303 -0.07299359 -0.28525323 -0.09832803
0000c0 33 e5 2c be 41 94 6a 3e 21 91 ed be b0 27 1a bf
       -0.16884308 0.22908117 -0.46399787 -0.6021681
0000d0 40 04 0d be 4f df 5b bf 58 6e 6b be 2c 80 01 3e
       -0.13771152 -0.85887617 -0.22991312 0.1264655
0000e0 61 46 f1 be 8c 8a 5e be 1b 9a 96 be d9 68 68 bc
       -0.47124007 -0.21732539 -0.29414448 -0.014185154
0000f0 ae 5b 7f be e4 2d 86 3d f1 0d bb bd 40 8d 78 3c
       -0.24937317 0.06551722 -0.091335185 0.015170395
000100 95 ed 99 bd 54 bf c6 be 4f a9 59 bd e4 bb 79 3d
       -0.07516018 -0.38817847 -0.05313998 0.060970202
000110 24 53 69 be 0c f0 69 be 6e 9c 54 bf b1 b5 b5 be
       -0.22785622 -0.22845477 -0.8305119 -0.35490182
000120 5c 7c ce 3d 41 4f 57 bc 73 b6 e2 3d a1 a1 8c be
       0.100823134 -0.013141454 0.11069956 -0.27467063
000130 1a b4 8a be ce b6 90 be 74 60 99 3d 49 9b fd bd
       -0.27090532 -0.2826447 0.074891 -0.12383134
000140 f5 64 c1 3d df fb 84 3e 1e 2d 82 bd dd db 91 bd
       0.09443084 0.25973412 -0.06356262 -0.07122014
000150 bf 4d 53 be 04 b0 4a 3e 49 54 60 be f8 af be be
       -0.20635127 0.19793707 -0.21907152 -0.37243629
000160 56 8f f1 bc e8 80 b5 be 58 47 93 be 45 73 03 bf
       -0.029487293 -0.3544991 -0.28765368 -0.5134776
000170 1d 63 03 be 5e ee 73 3d ef 61 f5 3d 58 12 15 be
       -0.12830777 0.059553497 0.1198157 -0.14557779
000180 7c 08 7d 3d 3d dd 84 3b 38 03 0e bf cc 6a e8 be
       0.06177567 0.004054694 -0.5547366 -0.4539398
000190 e3 8e b5 be f2 62 e1 be 76 5e 20 be 73 f3 d6 bc
       -0.35460576 -0.44020802 -0.15661034 -0.026239133
0001a0 68 d0 0d bf 37 3e 5a bf 5a 63 24 3e 2e 55 23 bf
       -0.5539613 -0.8525118 0.16053525 -0.6380185
0001b0 1a 35 35 bf 98 16 3d bd fd fd f3 be 42 f3 6b 3e
       -0.7078415 -0.046164125 -0.47654715 0.23042014
0001c0 3d 6b c9 3e 66 a4 dd bd 65 15 a5 be 61 84 5d be
       0.3933963 -0.10822372 -0.32242885 -0.2163253
0001d0 77 43 cf be 7a 08 5a bf db 72 bf bd eb 8a dc 3e
       -0.4048116 -0.85169184 -0.09348079 0.43074736
0001e0 a6 0a a1 3c 14 cd 82 ba 7b b7 00 bf f0 7d ed 3d
       0.019658398 -0.0009979331 -0.5027997 0.11596286
0001f0 5d 40 05 3e 35 33 95 bd e7 84 f5 3d 13 b9 8a be
       0.13012834 -0.072851576 0.1198824 -0.27094325
000200 f0 1b 04 be bb cc 07 3e 72 9c b7 be cd 63 01 bf
       -0.12901282 0.13261692 -0.35861546 -0.5054291
000210 76 25 93 be ae 8a b7 3d 06 e3 0a bf 37 d3 0d be
       -0.28739518 0.08961998 -0.5425266 -0.13850103
000220 af c2 7e 3d a6 46 d6 be c6 6e 86 3d 2b ce ce 3e
       0.062197383 -0.41850775 0.06564097 0.4039167
000230 69 48 bb 3e 19 fd 8f 3d 84 3e 12 bf 22 7c 74 be
       0.36578682 0.070306964 -0.5712664 -0.23875478
000240 da 9a 98 bd c4 ef 02 be 0e 09 1d be be c9 15 bf
       -0.074514106 -0.12786776 -0.15335485 -0.5851096
000250 5e 83 30 be 8d 57 46 be 16 f0 b4 be d2 11 13 3d
       -0.17237613 -0.19369335 -0.3533942 0.035905667
000260 da 02 0f be c7 3d f1 bd 1f 87 90 3d 92 d5 da be
       -0.13965932 -0.11779361 0.07057022 -0.42741066
000270 f3 9b 69 be 97 98 8b be 84 d9 e1 be 81 b5 c3 be
       -0.22813396 -0.27264854 -0.44111264 -0.38224414
000280 ae 89 6e 3d 7a 58 76 3b d1 15 89 3d 09 7c 42 bd
       0.05823677 0.0037589357 0.06693614 -0.04748157
000290 2e 15 04 be 09 a4 1f be 41 07 0f 3e 5d 69 5e bd
       -0.12898704 -0.15589918 0.13967611 -0.0542997
0002a0 b0 64 7c be 92 97 90 be 5f 5d e3 3b 31 b2 bc bd
       -0.24647784 -0.2824064 0.006938621 -0.09213675
0002b0 df 88 2f 3d 13 be e2 3d 63 cb 39 be cf a4 80 3d
       0.04285514 0.1107141 -0.18143992 0.06281435
0002c0 02 e9 16 bf c8 dd 75 3e 40 63 3b bf ec 42 62 bf
       -0.5894929 0.24010384 -0.7319832 -0.88383365
0002d0 6f 13 81 be 82 83 57 bf 9e f9 1d bd 64 e2 41 3e
       -0.2521014 -0.8418504 -0.03856813 0.18934017
0002e0 5e da ce be e5 c9 10 3d bd a9 cb bd 93 91 93 3d
       -0.40400976 0.03534879 -0.099444844 0.072055005
0002f0 d0 6d 48 be 41 ee 03 3e aa 80 c3 3d f6 7b 13 be
       -0.1957314 0.12883855 0.09546025 -0.14402756
000300 be 23 2e be 48 cf 6d 3e 09 b8 3a bc 29 28 b5 bd
       -0.17005822 0.23223603 -0.011396416 -0.088455506
000310 d3 7a f5 bd e6 50 e6 bd ee b1 c1 be a1 80 23 bf
       -0.119863175 -0.11245899 -0.37831062 -0.6386815
000320 b6 e9 99 3d 7a 68 79 3d 4b 82 9d 3d 74 d7 d3 be
       0.0751528 0.060890652 0.07690867 -0.41375315
000330 49 5c 0e be 6e bb 91 be 69 eb 11 bf 43 f8 9b be
       -0.13902391 -0.2846331 -0.5699983 -0.30462846
000340 42 1b 98 be 2d 95 30 be ef 50 b9 3d 8e 19 d2 bd
       -0.29708296 -0.17244406 0.0904864 -0.102587804
000350 e9 c6 09 bf 64 76 c5 3d 6a dd 8e be 50 f4 8e 3c
       -0.5381914 0.09641722 -0.279033 0.017450482
000360 64 e2 09 3e c6 60 ad be 08 da d1 be 08 6d 4b bf
       0.13465267 -0.33862895 -0.40986657 -0.79463243
000370 99 60 01 3e d7 de 80 bd e8 eb 5f be 64 f8 8f bd
       0.12634505 -0.06292503 -0.21867335 -0.070297986
000380 37 dc 93 3c af 86 43 be c0 f0 20 bf 80 72 f8 be
       0.018049343 -0.19094346 -0.62867355 -0.48524857
000390 62 3a 2f 3d 94 c2 26 bf ba 6d ed 3d f9 f5 80 3e
       0.042780288 -0.6514065 0.11593194 0.25187662
0003a0 c1 5c 8d be bb 9d 02 bf a5 1b a1 3e 71 ea cf be
       -0.27609828 -0.5102193 0.31466404 -0.40608552
0003b0 7f 63 09 bf e1 0f bc bb 26 19 30 bf b6 28 5c 3e
       -0.53667444 -0.0057391976 -0.68788373 0.21499905
0003c0 3c 5e 19 be a0 90 e9 bd 9d ab f6 be 2f 3b 1b bf
       -0.14977354 -0.11404538 -0.48177806 -0.6063718
0003d0 8a 8a f0 be a4 37 f5 be e8 ee 45 be de 8c 1a 3f
       -0.46980697 -0.47894013 -0.19329417 0.60371196
0003e0 55 b2 b5 3d 73 9a fa bc 80 d5 a9 be c8 35 92 bd
       0.08871905 -0.030591225 -0.331707 -0.07139164
0003f0 36 df be bd 6b 5b 0e be 84 cf 81 bc 0e bd 3c 3d
       -0.09319918 -0.1390206 -0.015846021 0.046078734

sequential/dense_2/MatMul f4 [32, 64]
000000 cb 5f de be e0 3e 73 bd 37 eb e2 ba 83 ab 69 bf
       -0.4343246 -0.059386134 -0.0017312531 -0.9127733
000010 2e c8 02 3f 4e c2 4e bd cc 7c 22 3f 1a 8c df bd
       0.510867 -0.050478272 0.63471675 -0.10915394
000020 83 92 04 3e 3f 92 46 be d0 13 92 bd 94 03 92 be
       0.12946515 -0.19391726 -0.07132685 -0.28518355
000030 94 9a 0d 3e d5 36 e9 be 9c 6c 8b 3d b3 13 69 3d
       0.13828498 -0.45549646 0.06807825 0.056903552
000040 b1 a7 a3 3d fa 86 a9 3d 08 00 20 bf 60 6a c5 be
       0.07990969 0.08277698 -0.6250005 -0.3855772
000050 7d d3 a5 3d f7 f0 66 3d 8f 5b ee 3a 1e 4d 17 3e
       0.08096979 0.056382146 0.0018185246 0.14775512
000060 1b 47 d6 3d 54 35 31 3e f6 3e ea 3d 60 33 28 3e
       0.10462781 0.173055 0.1143779 0.16425848
000070 7a 6c f5 3d 99 65 ba bd 60 2e 62 3e c9 27 2e bf
       0.11983581 -0.091014095 0.22088003 -0.6802946
000080 84 d8 50 3c 3c f2 dd 3e a4 2c 5e 3c 02 78 cd bd
       0.012746934 0.43348873 0.013560448 -0.10032655
000090 95 43 91 3d 75 93 16 bf 0d 5c af be b2 cf 42 bf
       0.070929684 -0.5881875 -0.34249917 -0.7609817
0000a0 3a 39 98 be a7 20 9d 3e 6f 7f c6 bd 2d 84 c6 3e
       -0.2973116 0.30688974 -0.09692275 0.38772717
0000b0 0a 8d d8 3e 69 0b 8a bc 99 d3 74 be fe f7 a4 be
       0.42295104 -0.016851144 -0.23908843 -0.32220453
0000c0 39 4d b0 be 1c 79 71 be f8 0f 1e be 11 09 ec bd
       -0.34433916 -0.23581356 -0.15435779 -0.11525167
0000d0 9e 56 30 3f 25 2c 23 3d bf a2 c3 be f9 e4 c1 be
       0.6888217 0.03983702 -0.38210103 -0.37870005
0000e0 6d 0f 1c be 7e c9 a3 3e bc 67 20 3f a1 17 f7 be
       -0.1524026 0.31989664 0.62658286 -0.48260215
0000f0 ea 0d 39 bc 42 cd d4 3a 24 3a 91 3e 61 d5 64 be
       -0.011294821 0.0016235488 0.2836467 -0.22347023
000100 35 d9 94 3e 32 a3 1d 3e 16 37 09 3f da 93 12 3e
       0.29071966 0.15394285 0.5359968 0.14314213
000110 ad bd db bd 16 68 94 3e 6b f3 1a 3d a1 77 19 3f
       -0.10729537 0.2898566 0.037829798 0.59948164
000120 d7 8f 41 3f f7 e3 f9 bd 24 3a 3b bd 71 80 84 be
       0.7561011 -0.12201684 -0.045709744 -0.25879243
000130 56 1b 8f 3e d8 d7 02 bc d5 02 36 3f 2e d0 4d bd
       0.27950543 -0.0079860315 0.7109807 -0.050247364
000140 cb 27 d3 3e 35 2d 0f 3f 29 09 1d bd d7 aa 31 3e
       0.41241297 0.55928355 -0.038338814 0.17350326
000150 eb f9 67 3e 3c cd 83 3e 53 75 42 bf 54 8e e3 3d
       0.2265393 0.2574252 -0.7596027 0.11111131
000160 3e cd 62 be 43 9a 09 3e f3 7f 2a 3e f8 a0 61 3e
       -0.22148606 0.13437752 0.16650371 0.22034061
000170 e8 27 48 3e 60 74 8d be 73 1d ab 3e 41 e2 8b 3c
       0.19546473 -0.2762785 0.33420905 0.01707566
000180 61 cd 9c 3e 99 0d 61 3e e3 7d f2 3c 75 9e a3 3e
       0.30625442 0.21977843 0.029601043 0.3195683
000190 b8 c6 c9 3e 76 80 02 bf 6d 34 a8 3e 19 05 47 be
       0.39409423 -0.50977266 0.32852498 -0.19435538
0001a0 6f ba da ba 01 65 1e 3d 7f eb ae be b4 0c d9 3e
       -0.0016687642 0.038670544 -0.34164044 0.42392504
0001b0 36 26 50 be b8 41 33 be de b8 55 3d 86 78 f5 bd
       -0.20327076 -0.17505538 0.052178256 -0.11985879
0001c0 c0 c0 e4 be 3d 1d e4 3e 46 26 d3 3e c3 01 01 bf
       -0.44678307 0.44553557 0.41240138 -0.50393313
0001d0 bf a8 1c 3e e7 37 68 bf 5f 4d 7e be 60 12 b6 bd
       0.15298747 -0.907103 -0.24834202 -0.088902235
0001e0 84 6d a9 be e9 0a c5 3e 6d a6 db bb 44 13 50 bd
       -0.33091366 0.38484886 -0.006703189 -0.050799623
0001f0 08 53 18 3f c1 cd a6 be bf 57 da 3e 5f 6e 2b 3e
       0.59501696 -0.32578853 0.4264507 0.16741322
000200 bf fe e6 be 95 81 7a be 1e b6 57 be d9 0a ae 3d
       -0.4511623 -0.24463494 -0.21065566 0.08498163
000210 1f ff 1e 3d 9f 9c 48 bd 84 37 e5 be 8f 60 0b 3d
       0.03881752 -0.04897749 -0.44768918 0.034027632
000220 59 3f 8f be f7 17 3f 3e 42 08 8a 3e 3f d2 46 bd
       -0.27978018 0.18661486 0.26959425 -0.04854035
000230 11 63 fc bc 24 73 1d 3e e2 47 7d be 44 a5 27 3e
       -0.030808957 0.15375954 -0.24734452 0.16371638
000240 ec 72 08 3e bf 13 0c 3e 6c 55 14 3e a7 15 7a 3d
       0.13325089 0.13679408 0.14485711 0.061055806
000250 a2 68 35 bf 37 5d b6 be 09 7d 63 be b1 b7 4a be
       -0.7086278 -0.35617992 -0.22215666 -0.19796635
000260 bc b5 84 bd cc 2b 9f be 25 54 d9 be ec ef 0f 3e
       -0.064799756 -0.31088102 -0.4244701 0.14056367
000270 9d 94 d1 bd fe 22 07 bf 05 4f 8c be 54 99 ee 3e
       -0.10233424 -0.5278777 -0.27404037 0.46601355
000280 e9 33 a1 be ca a4 28 be 83 92 29 bf 6c 60 4f 3d
       -0.31484917 -0.16469112 -0.66239184 0.050629064
000290 48 41 b6 be 5c 16 be 3e 4a 96 81 3b 3c 3e a7 3e
       -0.3559668 0.37126434 0.0039546834 0.3266467
0002a0 b8 0a 06 3f c2 1b fd bd e3 35 ec 3e fd 22 42 3e
       0.52360106 -0.1235881 0.46134862 0.1895866
0002b0 1d 82 1f bf b3 e3 68 3d 90 ee e9 3e 38 55 30 3e
       -0.6230791 0.056857776 0.4568982 0.17220008
0002c0 de 31 d5 bd e8 55 f0 3d 1d 69 04 bf 9a a8 bd bd
       -0.10409902 0.11735135 -0.5172289 -0.09260674
0002d0 9a c1 cb bd 57 a7 7d bd 9d 58 52 3e 55 c0 83 3e
       -0.09949036 -0.061927166 0.20541616 0.25732675
0002e0 24 4c 00 be 69 45 18 be 92 79 63 3e 5d ab 14 3e
       -0.12529045 -0.14870228 0.22214344 0.14518495
0002f0 48 da 12 be 6d 47 3e be 15 0f 26 be c3 56 b9 3e
       -0.1434108 -0.18581934 -0.16216691 0.36199006
000300 cb 2b 1f be f5 a4 77 be 12 52 70 be 7f 81 7c bc
       -0.1554405 -0.2418402 -0.23468807 -0.015411734
000310 8c bf 5a 3e 6f 8a f4 bd 2a e8 04 bf 79 f7 4f 3f
       0.21362132 -0.119404666 -0.51916754 0.8123699
000320 68 49 cc be 8a d7 29 3d f8 1c d8 be d9 f8 4c bd
       -0.39899755 0.04146532 -0.422096 -0.050042007
000330 03 dc 1b 3d d1 3b 00 be f7 68 47 be b7 ad c1 be
       0.038051616 -0.12522818 -0.19473635 -0.37827846
000340 fe ca 9c be 5b ac 15 bf cc fe 01 bd 8d e8 8e be
       -0.3062362 -0.5846612 -0.031737134 -0.27911797
000350 9c b8 6d be c5 91 04 3e b7 22 48 be cf f8 87 be
       -0.23214954 0.12946232 -0.19544493 -0.26557013
000360 2f 9a 6a be b3 ad c9 bd 47 84 60 3e 70 6b 28 bd
       -0.22910379 -0.098475836 0.2192546 -0.041118085
000370 44 8e a5 3e ba e2 9d bd f3 bf c2 bb ce 24 ba be
       0.32335103 -0.0770926 -0.0059432923 -0.36356205
000380 6f 65 c4 3e 62 b5 ad bd b5 12 59 3d e2 71 d0 bd
       0.38358638 -0.08481862 0.052996356 -0.101779714
000390 5e b8 0d be ec e8 07 bf 0e 18 2f bd 3d 31 61 be
       -0.13839862 -0.53089786 -0.04274755 -0.21991439
0003a0 b8 a3 46 be 8b ce f3 3d 02 c0 2b bf 24 e3 ee be
       -0.19398391 0.11904629 -0.67089856 -0.4665767
0003b0 2b 98 16 3e f4 a5 c6 bc 79 ce 8c be 84 79 9f bd
       0.14706485 -0.024249054 -0.27501276 -0.07786849
0003c0 be 36 01 3e 12 cd 52 be df e2 0d 3e bb 64 c3 be
       0.12618539 -0.2058604 0.13856076 -0.3816279
0003d0 44 22 40 3f 2c 91 ae bd 9e 9a 4e 3e b6 03 00 bf
       0.75052285 -0.08523783 0.2017617 -0.5000566
0003e0 8c 3c a3 3e 59 5c f0 3e 3f 37 e6 be 0c 39 8c be
       0.3188213 0.46945456 -0.44964024 -0.27387273
0003f0 6a d3 a5 bd 9e 5b 11 3e 95 92 9a be ae a5 84 bf
       -0.08096965 0.14195105 -0.30189958 -1.0363061

sequential/dense_3/MatMul f4 [30, 32]
000000 83 e5 6b 3d 42 9c 6d be 8d e7 33 bf ad 0b 3b bf
       0.057591926 -0.23204139 -0.70275193 -0.7306469
000010 eb 5e 23 3d 33 55 cf 3e 65 83 02 bf 31 11 bf bd
       0.039885443 0.4049469 -0.5098174 -0.09329451
000020 2a 2d 98 bd 90 7f 01 3e 4c 27 4b be ab 16 fb bd
       -0.07430489 0.12646317 -0.1983921 -0.12260183
000030 04 b7 8c 3e 2a f5 6d 3e 5c 99 ac bc 38 0e 4b be
       0.2748338 0.23238054 -0.021069221 -0.19829643
000040 52 64 df 3e e4 e9 e8 be 14 40 1d bf 96 e5 3a bf
       0.43631226 -0.45490944 -0.614259 -0.7300657
000050 50 b1 18 38 cb 34 2c 3e a9 23 77 be 57 9f 38 bf
       3.640476e-05 0.16817014 -0.24134697 -0.72118133
000060 bb a0 1d be d0 a1 f7 3d 70 d5 46 bf 19 e6 1a bf
       -0.15393345 0.1209141 -0.7766943 -0.6050735
000070 1d 0c bd 3d 28 e2 9c bd 62 d1 84 3e 11 a0 21 3e
       0.09230826 -0.076603234 0.25940996 0.15783717
000080 61 b9 06 bd 85 fd 4b 3e ae 1c 2d 3e c7 b0 0a bf
       -0.032891635 0.19920929 0.16905472 -0.5417599
000090 f8 56 8d 3e 56 43 08 3f a5 49 bb be 2d 29 ba 3c
       0.27605414 0.53227746 -0.36579624 0.022724712
0000a0 63 fb 30 3e 27 78 98 be 44 b3 15 3d 38 d7 10 3d
       0.17283396 -0.2977917 0.036547914 0.0353615
0000b0 7f bb 7a 3c 44 cd 86 be 39 0f 88 bc 67 92 32 3e
       0.015303492 -0.2632848 -0.016608821 0.1743866
0000c0 32 e1 ac bd 88 1c b0 bd 50 f7 34 3e 10 3d 57 3e
       -0.0844139 -0.08599192 0.17672467 0.21019387
0000d0 9c a9 4c bf cd 25 15 3e 09 ff fd be 5d d2 52 3e
       -0.79946303 0.14565201 -0.4960864 0.2058806
0000e0 cd 6f dc 3b 2e 84 20 bf 3e 29 d8 be eb 9b 8c be
       0.006727195 -0.6270169 -0.42218965 -0.27462706
0000f0 7e 10 c1 3e da 8c 0b 3f 0b 73 86 3e b3 9e 6e 3d
       0.37707895 0.545118 0.26259646 0.058256816
000100 9c b5 a3 bd 0e 16 f2 be 48 f8 47 bc 6a e0 9d 3e
       -0.079936236 -0.4728245 -0.012205191 0.30835277
000110 bb 55 d9 3b f0 49 31 3e 37 29 fe be 0f 5f ca 3e
       0.0066325343 0.17313361 -0.4964082 0.3952565
000120 ab 5f be 3d de a5 b5 be ae 65 04 be 76 ea 97 be
       0.09295591 -0.3547811 -0.12929413 -0.29671067
000130 71 cc 92 3d 9d 60 aa be b0 42 80 bd 74 54 92 be
       0.071679 -0.33276835 -0.0626272 -0.28580058
000140 64 dc 06 bf 19 31 e9 3d 00 5c 12 bf a8 1b 90 3e
       -0.5268004 0.11386318 -0.5717163 0.281461
000150 b4 1d 84 be 5a 4c 62 be 49 5a d0 be e2 0c 86 3e
       -0.25803912 -0.22099438 -0.40693882 0.26181704
000160 14 63 8d be f6 0c 9b be 82 62 26 bf ec 20 ad be
       -0.27614653 -0.30283326 -0.6499406 -0.3381418
000170 51 a3 2e be ba 6b 84 3e fb 54 a7 bc 44 34 a5 3e
       -0.17054488 0.2586344 -0.020426264 0.32266438
000180 62 10 dc bd ca b2 83 3d 56 e4 67 3d 1d 84 7e 3e
       -0.10745312 0.06430586 0.056614242 0.24855085
000190 30 13 b8 be f8 21 a5 3d c1 a3 44 bf e9 a7 f5 3c
       -0.3595214 0.0806312 -0.7681237 0.029987292
0001a0 74 8f 7b 3e c0 3e 2c be d6 0e 59 bf ec 3c f7 3e
       0.24566442 -0.16820812 -0.8478826 0.48288667
0001b0 16 56 5e bd dc 3d 16 bf 0a ec 8f be 59 97 87 be
       -0.054281317 -0.5868814 -0.2810977 -0.26482657
0001c0 a4 89 d6 be f0 37 25 3e 29 2d 28 bd bd 67 5d 3d
       -0.41901886 0.1613462 -0.041058693 0.05405401
0001d0 45 ca 90 3e 40 3d b1 be 74 7d 65 bf d2 43 df 3d
       0.2827932 -0.34617043 -0.8964455 0.109016076
0001e0 00 7e 2b bf 6d 8d 46 bd 65 5f 80 3e 86 0e 05 bf
       -0.66989136 -0.048474718 0.2507278 -0.51975286
0001f0 3b c1 5e bf 62 4b 49 bf f2 ee 3a bf a3 f7 14 be
       -0.87013596 -0.7863065 -0.7302085 -0.14547591
000200 4c 32 1a be ff 00 5a be 5a 2e 6e be 8f 5f c1 be
       -0.15058249 -0.21289442 -0.23259869 -0.37768218
000210 67 dd 55 3d a3 f3 d9 bd a9 f2 21 bf ac 8d 0d be
       0.0522131 -0.10642173 -0.63260895 -0.13823575
000220 49 f2 81 3e 4a 84 61 3e 92 2b 14 bd 52 8a 94 bf
       0.2538016 0.2202312 -0.036174364 -1.1604712
000230 05 22 6f be 42 d1 33 bf bb c7 06 bf d4 84 73 bf
       -0.23352821 -0.7024118 -0.52648515 -0.95124555
000240 61 5f f8 be 2e ea 12 be ac f4 a8 3e e3 06 41 3d
       -0.48510268 -0.14347145 0.3299917 0.04712571
000250 e0 62 92 be 9a d1 6f bf 27 ca 0d bf 28 c6 9c 3d
       -0.2859106 -0.936792 -0.55386585 0.07654983
000260 75 37 83 bd 96 c1 82 3e 23 18 90 bf bc c1 49 3e
       -0.06407062 0.2553832 -1.1257366 0.1970281
000270 36 43 29 bf b5 f9 9e 3e 9f 94 ba 3e c0 b7 00 bf
       -0.6611818 0.31049886 0.36441514 -0.5028038
000280 96 9b 2d be 57 bf ea 3e a8 73 90 3e 8a b6 b2 be
       -0.16953883 0.45849106 0.2821324 -0.3490489
000290 8c 6b 83 3e 12 6e 51 3e 71 60 1f be 8c ed ba 3e
       0.2566799 0.20452145 -0.15564133 0.3650936
0002a0 64 db 90 3e 75 8e 32 bf 5c 0a 34 3e 63 2f 8f be
       0.28292382 -0.6974862 0.17582077 -0.2796584
0002b0 4b 34 5b bd a7 5e 88 be 77 f3 cb 3c 64 31 5e be
       -0.053516667 -0.26634714 0.024896367 -0.21698529
0002c0 f3 6c d3 be 28 d6 54 bf cc 4c 1a bf 80 8a f9 3d
       -0.4129406 -0.83139277 -0.6027343 0.1218462
0002d0 26 1d 20 bf cb 98 56 3e 1f ba fc 3d e4 23 9e bd
       -0.62544477 0.20956723 0.12340187 -0.07721689
0002e0 0a 02 be be c7 49 77 be e9 55 b9 be 9e 3c 08 bf
       -0.3711093 -0.24149238 -0.36198357 -0.53217494
0002f0 4d bd 83 3e f0 d8 c4 3e 87 ff 91 3e 11 d2 9a 3d
       0.25730363 0.3844676 0.28515264 0.07559598
000300 b0 2f 55 3e e1 05 22 be d2 45 a9 3e e7 52 a6 bd
       0.20818973 -0.15822555 0.3306108 -0.08121281
000310 00 10 ca 3d a3 01 86 be f1 ba dc 3e 67 da 91 be
       0.09866333 -0.26173124 0.43111375 -0.2848694
000320 d4 ba 86 be 3f dd 72 be 65 b6 19 bf 0a 87 9b bd
       -0.26314414 -0.23717211 -0.60043937 -0.07594116
000330 9e 10 c1 be fb 0b 07 bf 21 3c b0 3e b5 7f 16 bf
       -0.3770799 -0.52752656 0.34420875 -0.58788615
000340 2b 2d 5b be 75 d8 8f 3d b7 a2 31 bf fd 1f c6 bd
       -0.21403949 0.07023708 -0.6938891 -0.0967407
000350 14 e9 03 3f cf 17 6b bf 66 c0 a3 be a8 b0 87 3e
       0.51527524 -0.91833204 -0.31982726 0.26501966
000360 1a 0a 78 be 6f e2 a7 be c2 99 3a 3e 43 af dd 3e
       -0.24222603 -0.32789943 0.18222716 0.43297777
000370 15 71 3b 3c 56 72 29 bf 21 61 ae be 55 73 7e 3e
       0.011440535 -0.6619009 -0.34058478 0.24848683
000380 9b 14 6d bf a3 ab d1 be b6 f1 ad be 34 05 c9 3c
       -0.92609566 -0.4095126 -0.33973473 0.024538614
000390 4a 7b aa bd ca f1 20 bf 2e c9 f5 3e 7e 51 1a bf
       -0.08324297 -0.6286894 0.4800505 -0.602806
0003a0 b4 56 2d bf a8 a8 7b be 06 fd cf bd 06 7f ae 3c
       -0.67710423 -0.24576056 -0.10155682 0.021300804
0003b0 80 c0 24 3e 80 22 b9 bd 88 77 bf be 56 b4 95 be
       0.16089058 -0.090397835 -0.37395883 -0.29239148
0003c0 ef cc 60 be 4f 72 08 3d 1c af 77 bf f0 55 10 bf
       -0.21953176 0.03331214 -0.9675157 -0.5638113
0003d0 08 f4 67 bf 7f 0e 99 be 42 39 a8 bd e5 b9 a1 3e
       -0.9060674 -0.29893872 -0.08214046 0.3158714
0003e0 5b bc 08 be 5c fc 23 3d 39 10 b5 3e a1 f3 fd 3d
       -0.13353102 0.04003559 0.3536394 0.12399984
0003f0 77 b7 d9 3d 8e d9 64 be ae a9 8a bf 04 c6 7b be
       0.10630696 -0.22348616 -1.0833032 -0.24587256
